HW4/Tables/DQN.pt (torch, 9559 bytes, 6 tensors)

fc1.weight f4 [32, 4]
-0.3359822 0.11855972 0.6467724 -0.17661677 -0.05021105 -0.43084794 -0.13225728 -0.13949278
0.6657823 0.10964246 0.9311039 0.38248116 -0.37003544 0.26748353 -0.8569601 -0.051704776
0.59678507 -0.47566843 -0.4868979 -0.13546312 0.34456703 -0.2914012 -1.6196903 -0.66821545
0.502096 0.36455083 -0.21311177 0.08418906 0.14617851 0.043936983 -0.19829404 -0.100225665
0.3358921 0.0024075187 0.13794096 -0.07638678 -0.9956899 -0.6319763 0.5885216 0.048987497
0.27724254 -0.066280246 0.31137225 -0.025852192 0.065014414 0.45005912 -0.06574203 0.1501661
-0.0655605 -0.023645978 0.88410187 0.27131933 0.30243436 -0.35710156 0.19474933 -0.2209819
0.40929765 -0.13722429 1.2941117 0.469024 -0.32084364 -0.12873337 -0.58916277 -0.2089941
-0.1066384 -0.009546953 1.0356187 0.7999736 -0.45203748 -0.28836414 -0.841807 -0.6607497
-0.35065386 0.12867689 -1.0349513 -0.4053187 -0.38199347 -0.08524345 0.3861632 -0.1981344
0.15570366 0.5604162 0.30096155 0.3966029 0.7292354 -0.028734887 0.4459999 0.25464678
0.7457676 0.48360327 -0.06689009 0.541339 0.03266163 -0.49635047 -0.32872418 -0.24948005
0.45007306 -0.6853701 0.08788224 -0.37510175 0.68399304 0.27108294 -0.11243893 0.13217764
0.713414 0.13832189 -0.40196973 0.32781267 0.48124433 -0.55057 -1.1526129 -0.51629275
-0.16104856 -0.49369478 -0.3189378 -0.3902041 -0.009994826 0.272563 0.248551 0.28975078
-0.14831612 0.0041555334 0.83335644 0.6092789 -0.28810078 -0.27127895 -0.32499033 -0.25911018
00000000: dc05 acbe 70cf f23d e092 253f 07db 34be
00000010: 1aaa 4dbd 1a98 dcbe 746e 07be 32d7 0ebe
00000020: b570 2a3f 3a8c e03d d35c 6e3f 92d4 c33e
00000030: 4975 bdbe 9af3 883e bd61 5bbf 63c8 53bd
00000040: e8c6 183f d08a f3be ae4a f9be d8b6 0abe
00000050: 176b b03e 8a32 95be 0352 cfbf 2b10 2bbf
00000060: 5d89 003f 68a6 ba3e f939 5abe 506b ac3d
00000070: d2af 153e 44f7 333d 980d 4bbe 1d43 cdbd
00000080: 0dfa ab3e 76c7 1d3b 6540 0d3e ac70 9cbd
00000090: 89e5 7ebf 33c9 21bf 5aa9 163f 1da7 483d
000000a0: bcf2 8d3e f0bd 87bd 2f6c 9f3e fac7 d3bc
000000b0: 4726 853d 266e e63e c2a3 86bd 24c5 193e
000000c0: 9544 86bd 36b5 c1bc 8054 623f 5eea 8a3e
000000d0: add8 9a3e 04d6 b6be 5e6c 473e 1449 62be
000000e0: 768f d13e 8684 0cbe 74a5 a53f ea23 f03e
000000f0: 9e45 a4be aed2 03be 5fd3 16bf 8d02 56be
00000100: 3c65 dabd d36a 1cbc 278f 843f 12cb 4c3f
00000110: 7571 e7be 77a4 93be aa80 57bf e426 29bf
00000120: e788 b3be e0c3 033e 4979 84bf ef85 cfbe
00000130: a694 c3be 1e94 aebd 2fb7 c53e bfe3 4abe
00000140: c870 1f3e 7077 0f3f a217 9a3e 890f cb3e
00000150: 2caf 3a3f 6d65 ebbc 195a e43e 1061 823e
00000160: a0ea 3e3f d99a f73e acfd 88bd 3195 0a3f
00000170: 34c8 053d a621 febe 894e a8be b377 7fbe
00000180: fa6f e63e 6a74 2fbf 9bfb b33d 560d c0be
00000190: 2b1a 2f3f 62cb 8a3e 6246 e6bd 9359 073e
000001a0: 4da2 363f 41a4 0d3e face cdbe 10d7 a73e
000001b0: a865 f63e 28f2 0cbf d288 93bf c32b 04bf
000001c0: eae9 24be 90c5 fcbe d14b a3be d5c8 c7be
000001d0: 57c1 23bc 618d 8b3e 2784 7e3e 375a 943e
000001e0: 2ee0 17be 242b 883b d956 553f b4f9 1b3f
000001f0: f281 93be 13e5 8abe 2265 a6be 17aa 84be

fc1.bias f4 [32]
0.1568425 0.8301139 0.9318081 -0.16786635 0.7632999 -0.09488981 -0.095624425 0.6589016
0.5593716 0.018636256 0.76614505 0.6157213 0.19314808 0.3892918 -0.31381172 0.6811737
-0.14675081 -0.21680008 0.25790614 0.60722613 0.8393547 0.8511213 -0.028813545 0.45354673
0.4680641 0.5034523 0.6613402 0.05273846 0.72216916 0.7283859 0.41169044 0.60700804
00000000: 529b 203e 5882 543f fa8a 6e3f 28e5 2bbe
00000010: 9f67 433f 9755 c2bd bdd6 c3bd c6ad 283f
00000020: fa32 0f3f 10ab 983c 1522 443f e99f 1d3f
00000030: 9cc8 453e 4151 c73e eeab a0be 6661 2e3f
00000040: d845 16be d700 5ebe 460c 843e 2c73 1b3f
00000050: f3df 563f 16e3 593f 620a ecbc 4737 e83e
00000060: 19a6 ef3e 40e2 003f 974d 293f 4904 583d
00000070: 14e0 383f 8077 3a3f 17c9 d23e e164 1b3f

fc2.weight f4 [50, 32]
-0.13795678 0.09597926 0.058655743 -0.24786985 -0.005651535 -0.5152059 -0.38462895 -0.088754505
0.07022055 0.1987744 0.21753825 -0.050082408 0.022015603 0.14974184 -0.3224273 0.21737982
-0.21650119 -0.16987169 -0.5060026 -0.0556424 0.1446476 0.21387377 -0.4533195 0.30175248
0.1311508 0.03645817 0.28773195 -0.101108566 0.048239116 0.051247872 0.033578567 0.10151334
0.068581045 -0.17781472 -0.15867707 -0.17031156 0.13048351 -0.15417579 0.040223807 -0.084340505
0.1499214 -0.012036324 0.052228164 -0.17980891 -0.16200146 -0.09003112 0.03571497 -0.08114169
-0.041068733 0.10930322 0.064388424 -0.12617296 0.05645819 -0.13829112 -0.1702732 0.13766044
-0.16779755 0.0370855 -0.020648539 -0.14009385 0.08329734 0.052011933 -0.15948315 0.12589042
0.15366542 -0.20580639 0.30121344 0.12964411 -0.07211922 -0.29108888 0.06210152 -0.06904942
0.16232067 -0.2439875 0.15725979 0.1649027 0.11042924 -0.13018656 0.23225951 -0.3424318
0.26869828 -0.21241724 -0.16171286 -0.051500708 0.30824447 0.033772916 0.27265078 -0.9061015
-0.8347354 0.16581725 0.27095258 -0.3334913 -0.65682256 0.1085699 0.17245796 -0.71196157
0.46217126 0.14425386 0.022635616 -0.21941306 0.5302776 -0.28663722 -0.021122554 0.45485494
0.41475475 -0.41270015 0.26201925 0.50371647 -0.038028397 0.5149205 -0.39051592 0.5049434
-0.42143402 -0.4756963 0.029825268 0.2454971 0.3668043 0.18895261 -0.33786136 0.33403236
0.35246563 0.37445703 0.34180063 -0.70833695 0.23783787 0.3108416 -0.15978621 0.4713844
0.7160139 0.055077773 0.20921701 -0.25602597 0.26738217 -0.45839378 -0.16122675 0.42428726
0.43087694 -0.44047835 0.33024365 0.5306156 -0.10141427 0.43243352 -0.39618453 0.4618166
-0.19526607 -0.58770967 -0.26058757 0.23763138 0.42451122 0.08783301 -0.5377346 0.31502223
0.4823788 0.5642048 0.20747651 -0.73654866 0.21065468 0.18899316 0.0876971 0.20558178
-0.15529627 0.04269342 -0.9417672 0.15724748 0.03667608 -0.05296139 -0.13865894 -0.018441427
-0.108205944 0.37229612 -0.078073375 -0.0034510784 0.1588596 -0.060329806 -0.25199825 0.30019882
0.25336727 0.4513292 0.07017718 0.075574234 -0.6456611 -0.76931494 0.015070558 -0.0027713033
-0.06154197 -0.7212541 -0.7153222 0.25011694 0.06867616 0.052269176 0.21861552 0.22367513
0.41851258 0.065308355 0.13621837 -0.18536529 0.009044503 -0.24775307 -0.114505745 0.04540271
0.08443654 0.021482889 0.2769973 -0.046677716 -0.08264368 0.17543858 -0.24044243 0.26500914
-0.31091592 -0.044759504 -0.015213344 0.3019732 -0.074635305 0.22343759 -0.39111036 -0.02567399
0.1506227 -0.15380816 0.06068919 -0.43658715 0.267271 0.17422272 0.15842079 0.026812688
0.08038723 0.06190976 0.118999876 -0.15407105 -0.0048528053 -0.08648168 -0.029921964 0.107683055
-0.11240486 -0.08750501 -0.07040657 0.01430127 0.10709375 -0.07355895 -0.17285222 -0.19344527
-0.13639958 -0.15259686 0.12222938 -0.17441249 0.016281819 0.097223416 -0.1270876 0.118727885
-0.0037918168 -0.104413316 -0.08423411 0.10009494 0.05935346 0.07288033 -0.057769876 0.08149625
00000000: 8b44 0dbe c690 c43d 0141 703d 98d1 7dbe
00000010: 8330 b9bb 89e4 03bf 16ee c4be ecc4 b5bd
00000020: cbcf 8f3d 848b 4b3e 59c2 5e3e 3623 4dbd
00000030: 115a b43c ed55 193e 3115 a5be d198 5e3e
00000040: 7db2 5dbe d8f2 2dbe 6389 01bf 49e9 63bd
00000050: 801e 143e ba01 5b3e 7e19 e8be 4d7f 9a3e
00000060: 654c 063e 2955 153d 9a51 933e 0212 cfbd
00000070: 6196 453d 4ae9 513d ae89 093d 3ae6 cf3d
00000080: 3874 8c3d 1015 36be 3e7c 22be 2766 2ebe
00000090: 789d 053e 42e0 1dbe b8c1 243d b7ba acbd
000000a0: ff84 193e 0034 45bc 33ed 553d d41f 38be
000000b0: b6e3 25be 3c62 b8bd dc49 123d 9d2d a6bd
000000c0: b037 28bd 5eda df3d 14de 833d 7c33 01be
000000d0: b440 673d 309c 0dbe 195c 2ebe dcf6 0c3e
000000e0: 1fd3 2bbe f7e6 173d 2027 a9bc c374 0fbe
000000f0: cc97 aa3d 770a 553d 8d4f 23be 6be9 003e
00000100: 785a 1d3e e9be 52be a638 9a3e 6dc1 043e
00000110: 3eb3 93bd 9a09 95be 2a5e 7e3d c869 8dbd
00000120: 6437 263e dcd7 79be b608 213e 41dc 283e
00000130: ba28 e23d a04f 05be 70d5 6d3e 3953 afbe
00000140: d292 893e e883 59be 0e98 25be 68f2 52bd
00000150: 38d2 9d3e 7855 0a3d e298 8b3e 45f6 67bf
00000160: 38b1 55bf ffcb 293e 4cba 8a3e 5fbf aabe
00000170: 8625 28bf e559 de3d d298 303e 1d43 36bf
00000180: b6a1 ec3e 49b7 133e 546e b93c d1ad 60be
00000190: 46c0 073f 1dc2 92be 3509 adbc bfe2 e83e
000001a0: bc5a d43e 6f4d d3be 6327 863e 90f3 003f
000001b0: aac3 1bbd d4d1 033f b4f1 c7be f843 013f
000001c0: 33c6 d7be 778e f3be 1f54 f43c 9763 7b3e
000001d0: c6cd bb3e cb7c 413e 2afc acbe 4a06 ab3e
000001e0: 6076 b43e d5b8 bf3e 7e00 af3e 9255 35bf
000001f0: c58b 733e a126 9f3e ff9e 23be 4c59 f13e
00000200: b04c 373f 3b99 613d fc3c 563e d615 83be
00000210: 51e6 883e 97b2 eabe a018 25be 2e3c d93e
00000220: e79b dc3e 6186 e1be b215 a93e 6dd6 073f
00000230: 49b2 cfbd ed67 dd3e b3d8 cabe 3a73 ec3e
00000240: d4f3 47be 2474 16bf bc6b 85be a455 733e
00000250: 8959 d93e cbe1 b33d faa8 09bf 984a a13e
00000260: 5bfa f63e ba6f 103f b974 543e 748e 3cbf
00000270: dcb5 573e 6c87 413e 8a9a b33d 0884 523e
00000280: fc05 1fbe 4cdf 2e3d a817 71bf 7c05 213e
00000290: a839 163d 0bee 58bd 9cfc 0dbe 7a12 97bc
000002a0: 149b ddbd 999d be3e efe4 9fbd 7d2b 62bb
000002b0: 17ac 223e 631c 77bd ea05 81be a9b3 993e
000002c0: 5bb9 813e 9f14 e73e 0eb9 8f3d aac6 9a3d
000002d0: 0c4a 25bf d3f1 44bf 80ea 763c c19e 35bb
000002e0: 6f13 7cbd 1ca4 38bf 5b1f 37bf 540f 803e
000002f0: 16a6 8c3d 3418 563d bfdc 5f3e 180b 653e
00000300: 4847 d63e 63c0 853d d47c 0b3e 66d0 3dbe
00000310: 652f 143c fbb2 7dbe fd81 eabd 31f8 393d
00000320: 11ed ac3d e2fc af3c 97d2 8d3e 2231 3fbd
00000330: 1741 a9bd 2ca6 333e 8a36 76be 47af 873e
00000340: 5f30 9fbe be55 37bd 6441 79bc 3b9c 9a3e
00000350: 65da 98bd d3cc 643e 9e3f c8be 4252 d2bc
00000360: d63c 1a3e e37f 1dbe 3a95 783d 5a88 dfbe
00000370: bfd7 883e 7167 323e 0f39 223e 48a6 db3c
00000380: 0fa2 a43d 1795 7d3d 35b6 f33d cdc4 1dbe
00000390: 4804 9fbb 4f1d b1bd e81e f5bc ef88 dc3d
000003a0: 8534 e6bd d435 b3bd 5231 90bd e04f 6a3c
000003b0: f853 db3d 13a6 96bd 2c00 31be 8416 46be
000003c0: 55ac 0bbe 5a42 1cbe 6653 fa3d 3099 32be
000003d0: 7361 853c 121d c73d 4023 02be 9b27 f33d
000003e0: 2180 78bb a6d6 d5bd ef82 acbd 93fe cc3d
000003f0: 9d1c 733d 4842 953d 1ba0 6cbd 82e7 a63d

fc2.bias f4 [50]
-0.07202454 0.019688517 0.02656321 0.48182726 0.1210025 0.0070871003 0.14395311 -0.14662237
0.085285164 0.22869703 0.35692593 0.13860741 0.4276476 -0.14176469 -0.043618727 0.21926953
0.15959351 -0.08042268 0.09896134 0.22183914 0.27575818 0.42028826 0.09273779 -0.10980465
0.083332956 0.09770029 0.26103267 0.06179592 0.2129116 0.1000104 -0.07777526 0.053022273
0.34644574 0.267796 0.1391297 0.026256107 0.13671927 0.3482285 0.12893525 0.26544628
0.1898415 0.2142235 -0.043739486 0.27882865 0.4393324 -0.13698371 0.16457032 -0.14103809
0.43758005 0.26504904
00000000: 9a81 93bd d049 a13c 179b d93c 10b2 f63e
00000010: 29d0 f73d e83a e83b 7268 133e 2d24 16be
00000020: fda9 ae3d 8e2f 6a3e ffbe b63e 1aef 0d3e
00000030: a0f4 da3e c32a 11be 8da9 32bd 3188 603e
00000040: 7b6c 233e a5b4 a4bd 3eac ca3d cd29 633e
00000050: 2d30 8d3e 0630 d73e 4fed bd3d 43e1 e0bd
00000060: 78aa aa3d 1717 c83d 13a6 853e b81d 7d3d
00000070: 8005 5a3e 41d2 cc3d a348 9fbd e22d 593d
00000080: 5661 b13e 8f1c 893e 0478 0e3e 0c17 d73c
00000090: 2300 0c3e 024b b23e 9a07 043e 93e8 873e
000000a0: cf65 423e 685d 5b3e 2d28 33bd a1c2 8e3e
000000b0: 2df0 e03e 7545 0cbe 1f85 283e 4a6c 10be
000000c0: 7e0a e03e 82b4 873e

fc3.weight f4 [2, 50]
-0.09945083 -0.043062635 -0.56499165 0.37675896 0.5211875 -0.46417826 0.13973309 -0.0583871
-0.50933564 0.39750126 0.44572058 0.40055412 0.49309966 0.07316032 -0.58420926 0.30082572
-0.5431056 -0.32019255 -0.5065699 0.37623927 -0.5067976 0.30799785 -0.76689 0.017399147
0.1727642 0.41868114 0.42868507 -0.26838014 0.50480455 -0.07901236 -0.11913752 -0.78012794
0.36887604 0.4164787 -0.117577 0.15513676 0.40238985 0.51395655 -0.18627425 0.31165084
-0.7354086 0.050309088 -0.65435314 0.4654513 0.4015076 -0.11941905 -0.71798974 0.032486826
0.31237683 0.5271716 0.30586743 0.008995935 -0.64484704 0.243678 0.3381562 -0.3732709
0.47641832 0.039943542 -0.74293405 0.30873322 0.43367997 0.18198852 0.47632313 0.0010797564
-0.49874374 0.27624676 -0.80660075 -0.6504903 -0.2932783 0.46632546 0.1365776 0.44643724
-0.8772099 0.09243886 0.49355295 0.28084812 0.34359738 -0.82116264 0.34890082 -0.108438134
-0.04720809 -0.55068 0.46421763 0.1859792 0.08877767 0.5021668 0.39335257 0.40773013
0.42649078 0.2623001 -0.22431473 0.48313615 -0.20714892 0.46476448 0.4537777 -0.019275628
-0.26961285 0.12233529 0.18067585 0.29196048
00000000: e0ac cbbd 7262 30bd 4ba3 10bf 8de6 c03e
00000010: 8b6c 053f c6a8 edbe 3116 0f3e 5027 6fbd
00000020: d263 02bf 4985 cb3e 7d35 e43e 6e15 cd3e
00000030: 8f77 fc3e 14d5 953d bd8e 15bf d405 9a3e
00000040: f808 0bbf 47f0 a3be 91ae 01bf 6fa2 c03e
00000050: 7dbd 01bf e5b1 9d3e e752 44bf a888 8e3c
00000060: 19e9 303e 605d d63e 9c7c db3e 1f69 89be
00000070: df3a 013f 3bd1 a1bd 5ffe f3bd 77b6 47bf
00000080: 52dd bc3e b23c d53e 36cc f0bd 2cdc 1e3e
00000090: 0b06 ce3e a892 033f adbe 3ebe b390 9f3e
000000a0: bd43 3cbf e710 4e3d b083 27bf a24f ee3e
000000b0: 6792 cd3e fa91 f4bd 2dce 37bf e810 053d
000000c0: dbef 9f3e b8f4 063f a89a 9c3e b063 133c
000000d0: b214 25bf ba86 793e cf22 ad3e 5d1d bfbe
000000e0: 1aed f33e d79b 233d ed30 3ebf 4812 9e3e
000000f0: 4d0b de3e 335b 3a3e a0e0 f33e 9d86 8d3a
00000100: 575b ffbe 3770 8d3e 637d 4ebf 8886 26bf
00000110: 9328 96be 36c2 ee3e 00db 0b3e 6c93 e43e
00000120: d490 60bf 9650 bd3d f9b2 fc3e 53cb 8f3e
00000130: ffeb af3e b737 52bf 21a3 b23e d014 debd
00000140: 455d 41bd 5df9 0cbf efad ed3e 5571 3e3e
00000150: 11d1 b53d 018e 003f 8265 c93e 01c2 d03e
00000160: 005d da3e 334c 863e c3b2 65be 9f5d f73e
00000170: d91e 54be 9cf5 ed3e 8d55 e83e ece7 9dbc
00000180: b20a 8abe ed8a fa3d 1703 393e d87b 953e

fc3.bias f4 [2]
0.1597815 0.14587204
00000000: c39d 233e 7b5f 153e
